…
2019-11-18 18:19:30.383556: I tensorflow/core/kernels/data/shuffle_dataset_op.cc:143] Filling up shuffle buffer (this may take a while): 11429 of 12000
2019-11-18 18:19:36.541588: I tensorflow/core/kernels/data/shuffle_dataset_op.cc:193] Shuffle buffer filled.
............................................................................
751.0 batches: 338.0912787914276 s
71.08140 Images/s
Total time: 464.7952539920807s
04.Model
Model: "sequential"
_________________________________________________________________
Layer (type)                 Output Shape              Param #   
=================================================================
conv2d (Conv2D)              (None, 600, 600, 16)      448       
_________________________________________________________________
max_pooling2d (MaxPooling2D) (None, 300, 300, 16)      0         
_________________________________________________________________
conv2d_1 (Conv2D)            (None, 300, 300, 32)      4640      
_________________________________________________________________
max_pooling2d_1 (MaxPooling2 (None, 150, 150, 32)      0         
_________________________________________________________________
conv2d_2 (Conv2D)            (None, 150, 150, 64)      18496     
_________________________________________________________________
max_pooling2d_2 (MaxPooling2 (None, 75, 75, 64)        0         
_________________________________________________________________
flatten (Flatten)            (None, 360000)            0         
_________________________________________________________________
dense (Dense)                (None, 512)               184320512 
_________________________________________________________________
dense_1 (Dense)              (None, 1)                 513       
=================================================================
Total params: 184,344,609
Trainable params: 184,344,609
Non-trainable params: 0
_________________________________________________________________
None
Train for 3 steps
Epoch 1/10
2019-11-18 18:25:27.457359: I tensorflow/core/kernels/data/shuffle_dataset_op.cc:143] Filling up shuffle buffer (this may take a while): 1703 of 12000
…
